data/pnet.pt (torch_old, 28570 bytes, 8 tensors)

conv1.bias f4 [10]
000000 60 a6 a9 bd b4 76 6b 3f 56 26 98 3f c7 c7 b1 3d
       -0.08283687 0.91978 1.1886699 0.08680683
000010 73 fe 9e bc 0e db 00 bd 80 89 07 3e c9 d3 55 bd
       -0.01940844 -0.031458907 0.13236046 -0.052203927
000020 05 bc fa 3b 54 d5 2a 3f
       0.007651808 0.6673176

prelu1.weight f4 [10]
000000 a1 1a 20 bf e1 c2 58 be d8 7e 81 3f 8f da e1 3e
       -0.6254063 -0.2116809 1.0116835 0.4411206
000010 ad 72 84 bf 7d 9d a4 3e 25 85 98 be 4f f7 80 3e
       -1.0347496 0.32151404 -0.2978908 0.2518868
000020 00 fb 61 bf e0 9f a3 bf
       -0.8827362 -1.2783165

conv2.bias f4 [16]
000000 f3 a0 82 3f 92 34 1f 40 98 34 17 40 58 9a d7 3e
       1.0205368 2.4875836 2.362585 0.42109942
000010 80 ab 82 3f 2c 42 c4 3f 2b 49 1a 40 b4 91 19 40
       1.0208588 1.5332694 2.4107158 2.399518
000020 4c fa 3c 3f 3f 8d 42 3e 73 37 a3 3e c1 c5 b8 3e
       0.7381942 0.18999194 0.31878242 0.36088374
000030 72 d3 da 3f 63 3c f6 bd 90 76 19 3f 26 ea 2d 40
       1.7095778 -0.120232366 0.59946537 2.7174163

prelu2.weight f4 [16]
000000 8d 38 89 3d 80 9c 51 3e e2 18 81 3e 6c 91 29 3d
       0.06700239 0.20469856 0.25214297 0.04139845
000010 27 2e 47 3e 9d 01 9a 3e fb 95 d9 3e 6a 16 de 3e
       0.194512 0.30079356 0.4249724 0.43376476
000020 b7 9b 33 3e 20 a6 06 bf ee f1 04 3e 7b 77 42 3e
       0.17539869 -0.52597237 0.12982914 0.1899089
000030 bd f9 87 ba 1d bc 21 be 20 08 59 be b0 02 6f bd
       -0.001037411 -0.15794416 -0.21194506 -0.058352172

conv3.bias f4 [32]
000000 1c ca b7 bd 0b a2 dd 3f c6 a9 a5 3f 4f 7b e3 bf
       -0.08974096 1.7315077 1.2942436 -1.7772006
000010 ec 0e cb 3e ff c3 08 3f 02 33 ac 3f b2 99 45 3f
       0.39659822 0.53424066 1.3453066 0.77187645
000020 78 a9 49 3f a6 f2 9f 3e db 2d c2 be 7e 03 97 be
       0.78774214 0.31239814 -0.3792561 -0.29494852
000030 7c 83 ee 3f 19 9d 50 3f 89 00 c0 3f 46 fb c1 bf
       1.8633876 0.8148971 1.5000163 -1.5154808
000040 4a 30 37 bf d8 e1 f7 be 6b 28 1d bf cb 27 bc 3f
       -0.7155806 -0.48414493 -0.613898 1.4699644
000050 58 9a af 3f 81 8e 4c 3f 6c 5e 6b 3f 78 4b 62 3f
       1.3718977 0.79904944 0.9194095 0.88396406
000060 21 ea 59 3f d5 09 7f 3f 3e 2c a3 be ca 29 5d be
       0.8512288 0.9962438 -0.31869692 -0.21597973
000070 5d 9c 69 3f d7 e1 18 3f ca 5b 45 3f 2e 3e c5 3e
       0.91254216 0.59719604 0.77093184 0.38524002

prelu3.weight f4 [32]
000000 1e 32 58 3d 20 46 51 bd 09 bd bc 3d 92 e7 b6 be
       0.05278217 -0.051092267 0.09215743 -0.3572355
000010 81 10 a9 be 6e d2 08 be 34 37 a6 bb 8b ae 5f 3d
       -0.33020404 -0.13361523 -0.0050724987 0.054609817
000020 5e 8b a6 bc d0 1b c7 bc 3e 79 b4 3d 1e ec 98 be
       -0.020330127 -0.024305254 0.088121876 -0.29867643
000030 85 ed 75 be b4 7a 1e 3e fc 0e 40 3e ae 4c 93 bd
       -0.24016388 0.15476495 0.18755716 -0.0719236
000040 f1 d0 6e be 96 28 78 3e 5d 8c 91 3e 8a a5 ee bc
       -0.23321892 0.24234232 0.284274 -0.02913167
000050 62 46 d3 be da b2 a8 bc c2 67 b5 bd 89 94 4e be
       -0.41264635 -0.020593096 -0.08857681 -0.20173849
000060 04 90 7e 3b c2 15 30 3f 94 d0 a0 3e ef 63 7d 3e
       0.0038843164 0.687832 0.31409132 0.24745153
000070 77 b0 80 3d bd 99 3c be 72 13 07 be 1c e4 65 3e
       0.06283658 -0.18418022 -0.13191012 0.22450298

conv4_1.bias f4 [2]
000000 a5 01 0b 3a 18 16 05 ba
       0.0005302674 -0.00050768396

conv4_2.bias f4 [4]
000000 a6 9f b0 3c 7b 83 2f bd 6a 26 7a bd 1c ae 47 bc
       0.021560501 -0.04285 -0.06107179 -0.012187507
