data/rnet.pt (torch_old, 403147 bytes, 10 tensors)

conv1.bias f4 [28]
-0.35307598 0.056812536 -0.37000194 0.010822841 0.07664489 -0.006551498 -0.031521756 -0.24418317
0.0006960744 0.49110442 0.009181519 0.4126676 -0.3148867 -0.08050286 0.027027847 0.10753667
-0.4272992 0.10672962 0.41831046 0.07363839 -0.00050130114 0.13836658 0.018391866 0.1294641
0.0048547 -0.06891343 -0.5672981 -0.29254776
00000000: 60c6 b4be 43b4 683d e570 bdbe 4952 313c
00000010: fff7 9c3d f3ad d6bb f51c 01bd 270b 7abe
00000020: c378 363a 0a72 fb3e 156e 163c 2b49 d33e
00000030: d438 a1be afde a4bd 8169 dd3c 303c dc3d
00000040: f6c6 dabe 0f95 da3d ca2c d63e b9cf 963d
00000050: c069 03ba f8af 0d3e 8aaa 963c 3d92 043e
00000060: 2d14 9f3b 7c22 8dbd 733a 11bf d2c8 95be

prelu1.weight f4 [28]
1.2957295 0.090654 -0.12666987 0.024778163 -0.29429224 0.06468944 0.010410221 -0.1927251
0.4298884 0.8275898 0.12819117 -0.15820393 0.00014605754 0.09617685 0.10252927 0.13980727
1.2625945 -0.1993653 -0.3573036 -0.39996937 0.18831784 0.10027734 0.069785096 0.07637818
0.04540512 -0.6511868 0.07483342 -0.08944089
00000000: 77da a53f cea8 b93d bfb5 01be 93fb ca3c
00000010: 79ad 96be e67b 843d a28f 2a3c bb59 45be
00000020: 551a dc3e eddc 533f 8c44 033e 3600 22be
00000030: 0627 1939 5ef8 c43d defa d13d a329 0f3e
00000040: b29c a13f 6b26 4cbe 7ff0 b6be c9c8 ccbe
00000050: 64d6 403e 355e cd3d 7deb 8e3d 2a6c 9c3d
00000060: b8fa 393d 2eb4 26bf 4442 993d c92c b7bd

conv2.bias f4 [48]
0.09402923 0.3272887 0.17258367 0.029085642 0.28262612 0.08165926 0.10149037 0.018633602
-0.074959345 0.08388003 -0.0780006 -0.01904491 -0.19399525 0.11397649 0.15990227 -0.10746637
0.14197938 0.28088662 0.21045694 0.11558739 0.20413695 -0.0062172893 0.07827143 0.08424431
0.11756481 0.13626733 0.06575213 -0.0094690155 0.21086772 -0.32533264 0.14982407 -0.062069803
-0.140055 0.16898276 0.14684734 0.1487356 0.13786402 0.22424777 -0.13440458 0.16978352
0.3292466 0.02820722 0.12805222 -0.042468768 0.102473974 -0.11686965 -0.13187632 -0.18402103
00000000: 6692 c03d 6292 a73e c6b9 303e 0345 ee3c
00000010: 5fb4 903e f83c a73d 2fda cf3d 7fa5 983c
00000020: 4984 99bd 4bc9 ab3d c7be 9fbd 1204 9cbc
00000030: b1a6 46be 826c e93d 6cbd 233e 5417 dcbd
00000040: 0b63 113e 5fd0 8f3e 0682 573e 15b9 ec3d
00000050: 4709 513e 67ba cbbb c64c a03d 4888 ac3d
00000060: d2c5 f03d aa89 0b3e 0da9 863d ee23 1bbc
00000070: b5ed 573e 0092 a6be 7b6b 193e e83c 7ebd
00000080: 946a 0fbe d109 2d3e 265f 163e 254e 183e
00000090: 3a2c 0d3e 35a1 653e 5ba1 09be bbdb 2d3e
000000a0: 0393 a83e d412 e73c 1f20 033e bbf3 2dbd
000000b0: e0dd d13d 5b59 efbd 960a 07be 0270 3cbe

prelu2.weight f4 [48]
0.18670359 0.18643601 0.19817473 0.336665 0.18394092 0.2364359 0.12299212 0.05397391
0.087718114 0.14026305 0.16488682 0.1251733 0.18874536 0.21278092 0.2768358 -0.043569546
0.32705387 0.41303894 0.11377883 0.28790352 0.349545 0.12233995 0.41104433 -0.06332362
0.30825832 0.20287578 0.18172841 0.1346182 0.3407482 1.184394e-05 0.21872357 0.12521993
0.3288558 0.2760023 0.34789732 0.08433739 0.3267839 0.17029522 0.62871504 0.1193284
0.23703006 0.10537827 0.259698 0.08960916 0.3471106 0.3862487 3.332319e-05 -0.1647258
00000000: 3a2f 3f3e 15e9 3e3e 51ee 4a3e 5b5f ac3e
00000010: 025b 3c3e 411c 723e 4be3 fb3d bf13 5d3d
00000020: 8ea5 b33d 1ea1 0f3e 17d8 283e 6e2d 003e
00000030: 7746 413e 3ee3 593e 6cbd 8d3e fb75 32bd
00000040: 9b73 a73e d779 d33e e004 e93d 1768 933e
00000050: 90f7 b23e 5e8d fa3d 6774 d23e d0af 81bd
00000060: 09d4 9d3e abbe 4f3e 0317 3a3e 5ad9 093e
00000070: 8c76 ae3e 56b5 4637 12f9 5f3e a739 003e
00000080: ca5f a83e 2c50 8d3e 991f b23e 15b9 ac3d
00000090: 3850 a73e df61 2e3e 78f3 203f 7362 f43d
000000a0: 02b8 723e 90d0 d73d 23f7 843e 0285 b73d
000000b0: 7bb8 b13e 64c2 c53e 81c4 0b38 e1ad 28be

conv3.bias f4 [64]
-0.044562854 0.05089237 0.037043545 0.022290478 0.021148626 0.07411862 0.04596696 0.17976576
0.11883927 0.25170684 0.047155697 0.32297844 -0.13609837 0.12375694 0.029065214 0.087610535
0.13496512 0.12063241 -0.04393891 0.24614574 0.17871632 0.0009860016 0.09866358 0.2079312
0.055691607 0.14079443 -0.008910486 0.24381158 0.052778773 -0.061528627 0.23708515 0.13013679
-0.12709054 0.15169938 0.021104526 -0.03234107 0.08095835 0.07567717 0.17863347 0.30629343
0.052025 0.07997809 0.015237777 0.13604991 0.11579929 0.07065597 0.21598405 0.052217074
0.09032047 0.3077555 0.25318494 -0.036462203 0.26474977 0.10201145 0.12548815 0.21646121
0.18153112 0.16302429 0.065894276 0.13427661 0.027758487 -0.011224796 0.0030101445 0.13520727
00000000: 8a87 36bd 8574 503d f9ba 173d 859a b63c
00000010: e23f ad3c 81cb 973d da47 3c3d 8414 383e
00000020: 0162 f33d b8df 803e 5526 413d 6e5d a53e
00000030: 5f5d 0bbe 4774 fd3d 2c1a ee3c 276d b33d
00000040: 4c34 0a3e 200e f73d 49f9 33bd a10d 7c3e
00000050: 6901 373e b93c 813a 2210 ca3d ebeb 543e
00000060: e21c 643d 6a2c 103e 49fd 11bc bea9 793e
00000070: 8e2e 583d 7105 7cbd 73c6 723e 9442 053e
00000080: 0624 02be 1557 1b3e 66e3 ac3c 1278 04bd
00000090: 7ecd a53d a2fc 9a3d b1eb 363e 7ed2 9c3e
000000a0: 2b18 553d 8ecb a33d dea7 793c ab50 0b3e
000000b0: 2e28 ed3d 14b4 903d ec2a 5d3e 92e1 553d
000000c0: f0f9 b83d 2192 9d3e 75a1 813e 6459 15bd
000000d0: 488d 873e 61eb d03d f77f 003e 02a8 5d3e
000000e0: 4be3 393e d7ef 263e 94f3 863d cf7f 093e
000000f0: c465 e33c 35e8 37bc d845 453b c673 0a3e

prelu3.weight f4 [64]
-0.056568645 0.006064377 -0.01710507 -0.114015155 -0.17370103 0.021751294 -0.08308871 -0.1326056
-0.04062088 -0.065564275 -0.16557522 -0.5614807 -0.27250952 0.09922754 -0.09982472 -0.021729557
-0.07662687 -0.13254029 -0.17879656 0.028707493 -0.19281545 0.008373483 0.18106887 -0.025643293
-0.061117113 0.060177606 -0.3368446 -0.24279247 -0.43931437 -0.28919992 -0.24803346 -0.13589369
-0.060672246 0.1294942 -0.16485651 -0.17154661 -0.007087476 0.019842187 0.10708245 0.041562926
-0.15188688 -0.045383442 -0.06221693 -0.008302191 -0.25736886 -0.28345966 -0.14682332 -0.20180748
0.09658721 0.11573971 -0.14687295 -0.30922827 -0.08432867 0.049165424 -0.008819423 -0.31901118
-0.15233546 -0.085486986 -0.0028775446 0.033648223 -0.22072197 -0.12772898 -0.226109 -0.33981442
00000000: 86b4 67bd aeb7 c63b ef1f 8cbc c780 e9bd
00000010: afde 31be c52f b23c 6a2a aabd c3c9 07be
00000020: 1462 26bd 9046 86bd 8d8c 29be 33bd 0fbf
00000030: 5e86 8bbe cf37 cb3d e770 ccbd 2f02 b2bc
00000040: 8cee 9cbd a4b8 07be 7216 37be fa2b eb3c
00000050: 6a71 45be ef30 093c 1e6a 393e e211 d2bc
00000060: f055 7abd cb7c 763d e576 acbe 979e 78be
00000070: d0ed e0be 0312 94be 7cfc 7dbe b727 0bbe
00000080: 7683 78bd 219a 043e 25d0 28be eaa9 2fbe
00000090: 0f3e e8bb 158c a23c 0b4e db3d e33d 2a3d
000000a0: 3c88 1bbe fde3 39bd 2ed7 7ebd ea05 08bc
000000b0: dac5 83be a021 91be da58 16be 9fa6 4ebe
000000c0: 84cf c53d f108 ed3d dd65 16be 2b53 9ebe
000000d0: 82b4 acbd af61 493d 577f 10bc 6f55 a3be
000000e0: d4fd 1bbe cd13 afbd 3095 3cbb b8d2 093d
000000f0: f104 62be 63cb 02be 1e89 67be 28fc adbe

dense4.bias f4 [128]
0.02815165 0.18531047 0.11190069 0.06803709 0.15181062 0.23628184 0.15598126 0.067093074
0.10141287 0.09741995 0.16240586 0.13781574 0.10451036 0.005228914 0.0547227 0.095777616
0.18912508 0.08143262 0.030344352 0.2800886 0.020837324 0.053477462 0.12384711 0.016997673
0.13352954 0.07754942 0.114801355 0.14513862 0.044926077 0.06889893 0.025071701 0.005922675
0.057543334 0.05485704 0.19629464 -0.014474264 0.04806449 0.057881407 0.08652495 0.1140031
0.011299208 0.08406961 0.18695867 0.09363298 0.06377584 0.069522254 0.1278313 0.096987076
0.059140418 0.13367507 0.035482697 0.06289943 0.046306416 0.052668106 0.110988975 0.044225574
0.05978368 0.035479605 0.111990154 -0.0506208 0.06775665 0.056343928 0.095653325 0.11125862
0.07241403 0.077212214 0.07015853 0.01246047 0.079073414 0.08666954 0.15929869 0.048179537
0.05415374 0.08428565 0.17591512 0.101125546 -0.046340466 0.09790334 -0.024744416 0.057034742
0.07039484 0.054309193 0.017162502 0.04303312 -0.065358266 0.13349196 0.22732943 0.08248722
0.102737546 0.1406302 0.035990015 0.016368484 0.15508999 0.05100439 0.031001069 0.05288458
0.03197789 0.2970161 0.017709244 0.01722647 0.064047076 0.031426895 0.1380166 0.024477908
0.07996815 0.073406726 0.09152523 0.1287839 0.070221364 0.2869921 0.13559243 0.057295095
0.02159103 0.24148333 0.0353699 0.103790894 0.068986274 0.034211475 0.12933595 0.06753833
0.10120093 0.10174895 0.0606086 0.06926324 0.26382872 0.16733275 0.11205461 0.026185298
00000000: 4a9e e63c 07c2 3d3e 302c e53d 0857 8b3d
00000010: 3e74 1b3e def3 713e 8db9 1f3e 1868 893d
00000020: 8db1 cf3d 1c84 c73d b94d 263e 921f 0d3e
00000030: 8709 d63d 4f57 ab3b e924 603d 0e27 c43d
00000040: 01aa 413e 25c6 a63d b894 f83c c667 8f3e
00000050: 09b3 aa3c 2f0b 5b3d 8ea3 fd3d b43e 8b3c
00000060: f8bb 083e 3bd2 9e3d f91c eb3d 389f 143e
00000070: 6804 383d e21a 8d3d 2b63 cd3c 0013 c23b
00000080: 8fb2 6b3d c7b1 603d 7601 493e 7725 6dbc
00000090: 45df 443d 0e15 6d3d fe33 b13d 757a e93d
000000a0: 5020 393c b02c ac3d 1872 3f3e a6c2 bf3d
000000b0: e89c 823d af61 8e3d 35e6 023e 29a1 c63d
000000c0: 393d 723d 1ee2 083e 4e56 113d 6bd1 803d
000000d0: ccab 3d3d 83ba 573d 304e e33d e025 353d
000000e0: bbdf 743d 1053 113d 185b e53d c257 4fbd
000000f0: 00c4 8a3d e4c8 663d e4e5 c33d 8fdb e33d
00000100: cf4d 943d 7021 9e3d 46af 8f3d 0027 4c3c
00000110: 3ef1 a13d cd7f b13d 321f 233e e857 453d
00000120: 50d0 5d3d f49d ac3d 1823 343e e91a cf3d
00000130: 80cf 3dbd 8c81 c83d cdb4 cabc 439d 693d
00000140: 2b2b 903d 5173 5e3d 6098 8c3c 7f43 303d
00000150: 8eda 85bd 1eb2 083e 0cc9 683e 0fef a83d
00000160: 1068 d23d 5d01 103e 446a 133d 3317 863c
00000170: e9cf 1e3e fbe9 503d f4f5 fd3c 809d 583d
00000180: 3ffb 023d 7f12 983e fa12 913c 871e 8d3c
00000190: 1d2b 833d 7db9 003d 3954 0d3e e585 c83c
000001a0: 57c6 a33d 4456 963d 9471 bb3d eddf 033e
000001b0: 38d0 8f3d a1f0 923e bed8 0a3e 43ae 6a3d
000001c0: acdf b03c 6847 773e 07e0 103d 5290 d43d
000001d0: ad48 8d3d 5521 0c3d a570 043e 8951 8a3d
000001e0: 6f42 cf3d c161 d03d b940 783d e3d9 8d3d
000001f0: 8f14 873e 4759 2b3e e37c e53d 8d82 d63c

prelu4.weight f4 [128]
-0.06932154 0.008755304 0.017228192 -0.10300618 -0.07288274 4.6228604e-05 -0.08088524 -0.12767774
-0.033976197 -0.07623569 -0.49171865 -0.010050404 -0.06728899 -0.1667253 -0.02684357 -0.07216369
-0.110661425 -0.51409554 -0.017118381 -0.05365964 -0.013086378 -0.07449328 -0.12950891 0.0034175054
-0.0114844125 -0.052319497 -0.12696399 -0.010573014 -0.030789364 -0.15014032 -0.01874258 -0.023982678
-0.024424044 -0.11293659 -0.100633904 -0.061045006 -0.042892303 -0.0978189 -0.32782185 -0.103791006
0.0058358307 -0.07585774 -0.59251523 -0.0387037 -0.1478255 -0.059583638 -0.14288925 -0.14205366
-0.069082566 -0.17996436 -0.021239223 -0.09242125 -0.10148705 -0.026657794 -0.46448117 -0.03617037
-0.05241373 -0.019873347 -0.14739484 -0.034633227 -0.23750359 -0.06415587 -0.49837393 -0.3427352
-0.036092766 -0.08719229 -0.21730775 -0.08625755 -0.13010614 -0.043926567 -0.065720476 -0.1173074
-0.074958056 -0.09051198 -0.012835418 -0.018503828 -0.02999048 -0.17930788 -0.094380036 -0.082028836
-0.0018428508 -0.063360736 -0.11101753 -0.07725627 -0.37892982 -0.2503185 -0.03637746 -0.058875915
-0.116476916 -0.44072512 -0.36756495 -0.5453162 -0.1698224 -0.010325688 -0.10532471 -0.041976728
-0.06957891 -0.66785103 -0.064564265 -0.08340121 -0.08501271 -0.06793563 -0.12557183 -0.019349247
-0.07483269 -0.04709992 -0.13474661 -0.026029555 -0.123446845 0.051740848 -0.14656383 -0.51949286
-0.15579312 -0.3872834 -0.03544223 -0.36497033 -0.06990348 -0.39529058 -0.22420305 0.03323611
-0.013675654 -0.05514872 -0.028153162 -0.045856643 -0.04787114 -0.18867286 -0.005806825 -0.4950951
00000000: 74f8 8dbd 6872 0f3c 2322 8d3c e7f4 d2bd
00000010: 8c43 95bd 96e5 4138 29a7 a5bd f4bd 02be
00000020: a02a 0bbd 7521 9cbd 8cc2 fbbe 73aa 24bc
00000030: cfce 89bd 09ba 2abe 0ce7 dbbc 8fca 93bd
00000040: 75a2 e2bd c49b 03bf d93b 8cbc 36ca 5bbd
00000050: 3f68 56bc ef8f 98bd fc9d 04be 3af8 5f3b
00000060: 1e29 3cbc f84c 56bd d902 02be 6f3a 2dbc
00000070: fa39 fcbc 62be 19be 0a8a 99bc 5277 c4bc
00000080: ef14 c8bc 4d4b e7bd 2619 cebd 540a 7abd
00000090: d7af 2fbd 4755 c8bd 44d8 a7be 6190 d4bd
000000a0: 7f3a bf3b 4e5b 9bbd 14af 17bf c587 1ebd
000000b0: 915f 17be f90d 74bd 8f51 12be 8476 11be
000000c0: 297b 8dbd 9448 38be e1fd adbc 5a47 bdbd
000000d0: 71d8 cfbd 7261 dabc 7ad0 edbe 6227 14bd
000000e0: c8af 56bd 6ecd a2bc acee 16be 92db 0dbd
000000f0: 2434 73be 2764 83bd de2a ffbe fd7a afbe
00000100: 02d6 13bd df91 b2bd ec85 5ebe cca7 b0bd
00000110: 8b3a 05be 58ec 33bd 7598 86bd dd3e f0bd
00000120: 9c83 99bd 585e b9bd a54b 52bc 5795 97bc
00000130: 98ae f5bc 7c9c 37be 524a c1bd bcfe a7bd
00000140: d08b f1ba 46c3 81bd 295d e3bd 8938 9ebd
00000150: 1703 c2be bf29 80be 8800 15bd df27 71bd
00000160: 738b eebd b9a6 e1be 7931 bcbe d899 0bbf
00000170: ece5 2dbe 132d 29bc 7bb4 d7bd caef 2bbd
00000180: 637f 8ebd 49f8 2abf 453a 84bd 41ce aabd
00000190: 251b aebd d621 8bbd e795 00be 5082 9ebc
000001a0: e241 99bd d9eb 40bd 04fb 09be ef3b d5bc
000001b0: b3d1 fcbd 36ee 533d d414 16be 7cfd 04bf
000001c0: 3b88 1fbe 034a c6be df2b 11bd 64dd babe
000001d0: 8e29 8fbd 8763 cabe 7c95 65be 9622 083d
000001e0: da0f 60bc a0e3 61bd 76a1 e6bc 2dd4 3bbd
000001f0: 8714 44bd 7533 41be 2e47 bebb 1b7d fdbe

dense5_1.bias f4 [2]
-0.09449352 0.09449355
00000000: d285 c1bd d685 c13d

dense5_2.bias f4 [4]
0.020075206 -0.108696915 -0.13659038 -0.055201028
00000000: c274 a43c 7d9c debd 59de 0bbe 791a 62bd
